1_Deep_Q_Learning/models/DQN_mountain_car.pth (torch, 992858 bytes, 16 tensors)

fc1.weight f4 [128, 2]
0	0xbf2b2f1b	-0.6686875
1	0xbde46718	-0.11152476
2	0x3f13cfd9	0.57739025
3	0x3f5a9d76	0.85396516
4	0x3f4b5f45	0.79442245
5	0x3d467db6	0.04845973
6	0x3e485278	0.1956271
7	0x3e918e76	0.28429002
8	0xbf18538c	-0.5950248
9	0xbf6af229	-0.9177576
10	0x3da89242	0.082310215
11	0x3eacd670	0.33757353
12	0xbe5cf85e	-0.2157912
13	0x3f1a13cf	0.60186476
14	0x3f4a2398	0.7896056
15	0x3f7bb34f	0.9832048
16	0xbd3959c0	-0.045251608
17	0x3e75ff0c	0.24023074
18	0x3e3d0bbc	0.18461508
19	0xbee63c99	-0.44968107
20	0x3eb91db2	0.36155468
21	0xbee9c872	-0.4566074
22	0xbf506a9b	-0.8141267
23	0xbe17680c	-0.14785784
24	0x3e909318	0.28237224
25	0x3d9b9d2f	0.0759834
26	0x3ee3abed	0.44467106
27	0x3f6298b9	0.88514286
28	0x3f299561	0.6624356
29	0xbd679a96	-0.05654391
30	0xbf469f75	-0.7758706
31	0x3e25ecb5	0.16203578
32	0x3d9aef20	0.07565141
33	0x3f617687	0.88071483
34	0xbe75d1d2	-0.24005821
35	0x3f59a74f	0.8502092
36	0x3d366e00	0.044538498
37	0x3eacc682	0.337452
38	0x3eb1ff33	0.34765014
39	0x3ddf0239	0.10889096
40	0x3f617f37	0.8808474
41	0x3f1fcaae	0.6241864
42	0x3f32c92b	0.6983821
43	0x3e998d65	0.29990688
44	0x3f048f8b	0.5178153
45	0x3f184bd9	0.59490734
46	0x3efdae6f	0.49547145
47	0x3d267f1b	0.04064856
48	0xbda6421b	-0.08118077
49	0x3f1eb04f	0.61987776
50	0x3ce15d9e	0.02751046
51	0x3f63c0de	0.88966167
52	0xbceb8f6f	-0.028754918
53	0xbe353182	-0.17694667
54	0x3ebfd655	0.3746821
55	0xbe80f83e	-0.25189394
56	0x3f3fc851	0.74915034
57	0x3f0c68f3	0.5484764
58	0xbea6b286	-0.32558078
59	0x3f2b6633	0.6695282
60	0x3eb4e3c6	0.35330027
61	0x3ee321b9	0.44361666
62	0xbe86f630	-0.263597
63	0xbe201888	-0.15634358
64	0xbf390274	-0.7226937
65	0xbf079801	-0.52966315
66	0xbe21172b	-0.15731494
67	0xbef96add	-0.48714343
68	0xbcd5584b	-0.026043078
69	0xbe8e19cf	-0.27754065
70	0xbf4780f2	-0.7793113
71	0xbe45a37e	-0.19300649
72	0xbea6fbb8	-0.3261392
73	0xbe97b257	-0.2962825
74	0x3e739fb9	0.23791398
75	0x3f62bd7f	0.885704
76	0xbeba5bca	-0.36398154
77	0x3daeb9e2	0.08531548
78	0xbed8979a	-0.42303163
79	0xbf0ae26b	-0.54251736
80	0x3edd07a0	0.4316988
81	0x3e58b606	0.21163186
82	0x3ca6f345	0.020379672
83	0x3f44ddf9	0.76901203
84	0x3f08fb33	0.535083
85	0x3e6ae491	0.22938754
86	0xbf62bde9	-0.8857103
87	0x3ec0f2a8	0.37685132
88	0xbf64fb53	-0.8944599
89	0xbf392d0f	-0.7233438
90	0x3ee8c5a4	0.45463288
91	0xbefc7bdd	-0.4931325
92	0x3f1ceba3	0.61297053
93	0xbf10f9b3	-0.5663101
94	0xbf2f44bc	-0.68464255
95	0xbf66f8b2	-0.9022323
96	0xbec8b54e	-0.39200824
97	0x3ec6bd02	0.38816077
98	0xbeb726ff	-0.3577194
99	0xbea57cce	-0.3232178
100	0xbe77f46f	-0.24214338
101	0x3f3c56f1	0.7357016
102	0xbf0d729e	-0.55253017
103	0xbed1f3aa	-0.41006213
104	0xbd5aab30	-0.053385913
105	0xbddbb990	-0.107287526
106	0x3f228dfe	0.6349791
107	0xbd9c55d4	-0.07633558
108	0x3ebfd78a	0.3746913
109	0xbf244e6b	-0.64182156
110	0x3e31bae4	0.1735645
111	0xbe7779da	-0.24167576
112	0xbf28437d	-0.6572798
113	0xbdac4257	-0.08411091
114	0xbf1920c9	-0.5981565
115	0xbf33e2ba	-0.7026783
116	0x3f2683e3	0.65044993
117	0x3ba50400	0.005035877
118	0x3ec6946e	0.38785118
119	0xbef566f2	-0.47930104
120	0x3d7141d0	0.058900654
121	0x3e6fd998	0.23422849
122	0x3f1047f2	0.5635978
123	0x3f5aa117	0.85402054
124	0xbdf68738	-0.1203751
125	0xbf046548	-0.5171704
126	0xbd1bb11c	-0.0380107
127	0x3e902e15	0.28160158
128	0xbdc41074	-0.09573451
129	0xbf3d6635	-0.7398408
130	0xbf22ee42	-0.636448
131	0xbf2923c2	-0.6607019
132	0xbed62225	-0.41822925
133	0xbe1f2900	-0.15542984
134	0x3e8bef56	0.27331036
135	0x3eb5e894	0.35529006
136	0x3e060bc8	0.13090432
137	0xbed39770	-0.41326475
138	0xbdb1bc20	-0.0867846
139	0x3f31883f	0.6934852
140	0x3f23ca57	0.6398062
141	0xbeed1bbc	-0.46310222
142	0x3f0d7c86	0.5526813
143	0x3f6e83d1	0.93169886
144	0x3ebcf032	0.36902004
145	0x3e2ca9f8	0.16861713
146	0x3f1b2b8b	0.60613316
147	0x3f1e384d	0.6180466
148	0x3e80042e	0.2500319
149	0xbebb3eca	-0.36571342
150	0xbeab4195	-0.33448473
151	0xbe215764	-0.15755993
152	0x3d88f628	0.066875756
153	0xbe18b708	-0.14913571
154	0x3f09546f	0.5364446
155	0x3f69b8ae	0.91297424
156	0x3d3c691a	0.04599867
157	0x3f1b7a6e	0.6073369
158	0x3d02329a	0.03178654
159	0x3ebf7346	0.37392634
160	0x3e599a34	0.2125023
161	0xbb425800	-0.0029654503
162	0xbef06d31	-0.46958306
163	0xbf72cb29	-0.9484125
164	0x3c9e8bcc	0.01935377
165	0x3f21a726	0.63145673
166	0xbf4f1a8d	-0.8089989
167	0x3eb32280	0.3498726
168	0xbd4f6f30	-0.050643146
169	0xbd8133a0	-0.06308675
170	0xbea47e38	-0.32127547
171	0xbf5acb59	-0.85466534
172	0x3e89043a	0.26761037
173	0xbe8ec870	-0.27887297
174	0x3d40b030	0.047043025
175	0x3f248933	0.6427185
176	0xbed9874e	-0.42486042
177	0xbf640176	-0.8906473
178	0x3ae9aeaf	0.0017828549
179	0x3f3b7ea4	0.73240113
180	0x3f1dd075	0.61646205
181	0x3e59429f	0.2121682
182	0xbe9b5812	-0.3034063
183	0x3f2e1c1f	0.6801166
184	0xbedcb155	-0.43104044
185	0x3e3e91fc	0.18610376
186	0x3f22f3b9	0.6365314
187	0xbcd45832	-0.025920961
188	0x3ef3db20	0.47628117
189	0xbdc8d5b9	-0.09806389
190	0x3e5645aa	0.20925012
191	0xbf5ecbb7	-0.87029594
192	0xbf12022a	-0.5703455
193	0x3eb466bd	0.35234633
194	0x3e04907f	0.12945746
195	0x3efde819	0.4959114
196	0x3e2fc022	0.17163137
197	0x3ecd33f7	0.4007871
198	0xbeb26e64	-0.34849846
199	0x3d634bd0	0.055492222
200	0xbe80352b	-0.25040564
201	0x3f1cd3a5	0.61260444
202	0xbf48be47	-0.7841534
203	0xbf4fa0ef	-0.8110494
204	0x3e0c4d50	0.13701367
205	0x3f09db43	0.5385019
206	0x3ea4eb5f	0.32210824
207	0x3e319a41	0.17344
208	0x3f650f28	0.8947625
209	0x3df29a08	0.118457854
210	0x3f299941	0.6624947
211	0xbd9ed658	-0.077557266
212	0xbdd51120	-0.10403657
213	0xbf0ddeee	-0.5541829
214	0x3f43e261	0.765173
215	0x3e9297e7	0.28631517
216	0x3f565b74	0.83733296
217	0x3f1c9dd7	0.61178344
218	0x3dc1a288	0.094548285
219	0xbde0b178	-0.109713495
220	0xbeeaa08f	-0.4582562
221	0x3e0d541d	0.13801618
222	0x3ed356e6	0.41277236
223	0xbf232ce8	-0.63740396
224	0xbd461bc0	-0.04836631
225	0xbeffa8aa	-0.49933368
226	0xbd18792d	-0.037224937
227	0xbe18915e	-0.14899203
228	0xbea5d590	-0.32389498
229	0xbf4680db	-0.7754037
230	0x3eb77cc2	0.3583737
231	0xbe1f7bdc	-0.15574592
232	0x3ec082c3	0.37599763
233	0xbe908d9f	-0.28233048
234	0x3ed8736e	0.42275566
235	0x3f29b0bb	0.66285294
236	0xbe655ff9	-0.22399892
237	0xbf1e923a	-0.61941874
238	0x3ea23902	0.31684119
239	0xbeff865c	-0.49907196
240	0x3e7f6782	0.24941829
241	0x3e35c066	0.17749175
242	0x3e993ffe	0.29931635
243	0x3e600238	0.21875846
244	0x3f486825	0.7828391
245	0xbebb26af	-0.3655295
246	0xbf4b2c59	-0.79364544
247	0xbf3ecc01	-0.74530035
248	0xbea57051	-0.32312253
249	0xbeb076b8	-0.34465575
250	0xbed50416	-0.4160468
251	0xbebfcdcd	-0.374617
252	0x3eaba802	0.33526617
253	0x3f1b4493	0.6065151
254	0xbf04441d	-0.5166643
255	0xbc96483c	-0.01834499

fc1.bias f4 [128]
0	0xbdb1f44a	-0.086891726
1	0x3d67db35	0.056605536
2	0x3e0ec6b8	0.13942993
3	0xbf302622	-0.68808186
4	0x3e956c87	0.29184362
5	0x3e5fb4d3	0.21846323
6	0xbebb4cc4	-0.36582005
7	0xbe98ad93	-0.29819927
8	0xbdd315e8	-0.10306913
9	0xbede591a	-0.43427354
10	0xbee8a770	-0.45440245
11	0xbd662554	-0.056187943
12	0x3d3bded2	0.045866795
13	0xbbc56fac	-0.006025275
14	0x3e1fb160	0.15595007
15	0xbe259ccb	-0.16173093
16	0x3dc5fbe8	0.09667188
17	0xbd2f3024	-0.04277052
18	0xbf0c6c3e	-0.54852664
19	0xbe28d648	-0.16487992
20	0xbdc2f259	-0.095188804
21	0xbdeb92f9	-0.11502642
22	0xbe9475f9	-0.28996256
23	0x3df52a5b	0.11970969
24	0x3e027389	0.12739386
25	0x3e2cb8de	0.16867396
26	0x3ea8a353	0.32937106
27	0x3e4a897e	0.19779012
28	0x3d19c7be	0.037544005
29	0xbece9e89	-0.40355328
30	0x3eabd589	0.33561352
31	0xbeedff56	-0.46483868
32	0xbdd39fc8	-0.1033321
33	0x3ead1429	0.33804443
34	0x3ca0fdf2	0.01965234
35	0xbf50bc96	-0.8153776
36	0x3ec22c06	0.37924212
37	0x3ed0659c	0.40702522
38	0x3e3868f2	0.18008783
39	0xbf2bee49	-0.6716047
40	0xbe214716	-0.15749773
41	0x3e6503d9	0.22364749
42	0xbd061c92	-0.03274209
43	0xbe20b830	-0.15695262
44	0xbdb338b0	-0.08751047
45	0x3e96a7f2	0.29425007
46	0x3e199f58	0.15002191
47	0x3ca21533	0.0197855
48	0xbf1133f6	-0.5671991
49	0xbee3c4aa	-0.4448598
50	0x3e837a8c	0.25679433
51	0xbf2c327c	-0.67264533
52	0xbed468b8	-0.41486144
53	0xbe127632	-0.143029
54	0xbe495784	-0.19662291
55	0xbf158927	-0.584124
56	0xbda5a351	-0.08087791
57	0xbf0d3f0c	-0.55174327
58	0xbec8e2b4	-0.3923546
59	0xbea21fa2	-0.3166476
60	0xbe0d0f24	-0.13775307
61	0xbe4dc14d	-0.2009327
62	0xbeb75ec9	-0.35814503
63	0x3d994d1a	0.07485409
64	0x3e6e9f58	0.23302972
65	0x3dfacd6a	0.12246211
66	0xbf099700	-0.5374603
67	0x3bd4ae73	0.0064905225
68	0xbf1abf7e	-0.60448444
69	0xbe2476e8	-0.16060984
70	0xbf258faa	-0.6467234
71	0x3ef64aa5	0.48103824
72	0xbe96bc1c	-0.2944039
73	0xbe46fec2	-0.1943312
74	0xbf327f7e	-0.6972579
75	0xbeeaea1b	-0.45881733
76	0xbf0a2e68	-0.5397706
77	0x3dbf7d06	0.09350018
78	0x3dffd295	0.12491337
79	0x3c351ffd	0.01105499
80	0xbe87c649	-0.26518467
81	0x3ec51113	0.3848959
82	0x3e5cfad6	0.21580061
83	0xbdbac26e	-0.09119116
84	0xbe901a09	-0.28144863
85	0x3ea5906d	0.3233675
86	0xbeda46bd	-0.42632094
87	0xbf2c9f27	-0.6743035
88	0x3e1b66b1	0.15175892
89	0x3dde524b	0.1085554
90	0x3ddf6097	0.10907095
91	0xbc8e18f8	-0.01734589
92	0xbf2a1f82	-0.6645433
93	0x3dbda645	0.09260229
94	0xbe1c9886	-0.15292558
95	0x3ddb636c	0.107123226
96	0xbd8e5344	-0.069494754
97	0x3da1fd43	0.07909634
98	0x3d79ae24	0.06095709
99	0xbf251730	-0.64488506
100	0x3e34eb17	0.17667805
101	0xbd23b887	-0.0399709
102	0xbf1ba9c9	-0.60805947
103	0xbe03666b	-0.12832038
104	0x3db2dae7	0.087331586
105	0xbf0ba73a	-0.5455204
106	0xbf0c2921	-0.5475026
107	0xbea7a309	-0.32741573
108	0xbeaf818e	-0.3427853
109	0xbf039acb	-0.5140807
110	0x3e2313f3	0.15925579
111	0xbf327cf2	-0.697219
112	0xbf136a24	-0.5758383
113	0x3e6ca9ab	0.23111598
114	0xbf171e99	-0.59031063
115	0xbebbfac5	-0.3671476
116	0x3db6063e	0.08887909
117	0x3ea19580	0.31559372
118	0x3e9ee526	0.310342
119	0xbead19ad	-0.33808652
120	0x3e4df2cc	0.20112151
121	0xbedd1de3	-0.43186864
122	0xbb40e875	-0.002943543
123	0x3c9374df	0.018000064
124	0x3e9db839	0.30804613
125	0x3eb2cb91	0.34920934
126	0xbf1f8335	-0.6230958
127	0xbddf7e0b	-0.10912713

fc2.weight f4 [636, 128]
0	0xbe90b5a1	-0.28263572
1	0xbe3eeb08	-0.18644345
2	0xbe7ecb1d	-0.24882169
3	0x3d6b874a	0.05750207
4	0xbe62d743	-0.22152428
5	0xbd6ab639	-0.057302687
6	0x3da9a249	0.082829066
7	0xbebe520a	-0.37171966
8	0xbd4687be	-0.048469298
9	0x3ccd239c	0.025041394
10	0xbc907414	-0.017633475
11	0xbe9ceacc	-0.30647886
12	0xbdbc7232	-0.092014685
13	0x3d049da6	0.032376908
14	0xbd5d98c6	-0.054100774
15	0xbeb103c6	-0.3457319
16	0x3e434451	0.1906903
17	0x3e8c4c7c	0.27402103
18	0x3d61adb6	0.055097304
19	0xbe56fd86	-0.20995149
20	0xbeb75bd5	-0.3581225
21	0xbe24f056	-0.16107306
22	0xbd8c0433	-0.068367384
23	0xbd08dd7e	-0.033414356
24	0xbdd0da05	-0.10197834
25	0x3c51391e	0.012769965
26	0xbd75ea27	-0.06003776
27	0xbd358dea	-0.044324793
28	0xbd23d764	-0.040000334
29	0xbd9cee73	-0.07662668
30	0xbd92b988	-0.071642935
31	0x3d9d4ebd	0.07681034
32	0xbea02a50	-0.31282282
33	0xbdcfc3a5	-0.10144738
34	0xbe4307d7	-0.1904596
35	0xbe9e1e4e	-0.30882496
36	0xbca5190b	-0.020153543
37	0x3d8ae4bf	0.06781911
38	0xbd1ef798	-0.038810343
39	0xbd5aa13f	-0.053376433
40	0xbde95577	-0.11393254
41	0xbd221f39	-0.039580557
42	0xbe0dd1e8	-0.13849604
43	0xbe7e723c	-0.24848264
44	0xbe853ae9	-0.26021507
45	0x3cb5381d	0.022121483
46	0xbc9dcab2	-0.019261692
47	0xbe8da1d1	-0.2766252
48	0xbb36efa0	-0.0027913824
49	0xbe83e9b7	-0.25764248
50	0x3d12ae77	0.035810914
51	0xbe68c265	-0.22730406
52	0xbd7449fb	-0.059640866
53	0xbdcf48b0	-0.10121286
54	0xbd8ee42e	-0.069771156
55	0x3d6b44ee	0.057438783
56	0xbe3f6af0	-0.18693137
57	0xbe48404d	-0.19555779
58	0x3d2a45ae	0.041570358
59	0x3d652cde	0.05595099
60	0xbda80bda	-0.082053855
61	0xbe6dc452	-0.23219422
62	0xbcab2e70	-0.020896167
63	0x3cc21d80	0.023695707
64	0xbd0187ef	-0.031623777
65	0xbe9f4816	-0.31109685
66	0xba3f5280	-0.0007298365
67	0xbbced016	-0.006311427
68	0xbb934a00	-0.0044949055
69	0x3a62ba00	0.0008648932
70	0x3d2f7ec6	0.04284551
71	0xbd860e1c	-0.0654566
72	0x3d67a162	0.05655039
73	0xbebbdf5e	-0.36693853
74	0x3d117830	0.03551501
75	0xbd4ab466	-0.049488448
76	0xbcbd2e94	-0.0230935
77	0x3dc75d7e	0.09734629
78	0x3d266063	0.040619265
79	0xbd2fac5f	-0.042888995
80	0x3d488182	0.048951633
81	0xbdec4904	-0.11537364
82	0x3c9939c3	0.0187043
83	0x3d875cf0	0.06609523
84	0x3c52b650	0.0128608495
85	0xbe3a38e0	-0.18185759
86	0xbd888a5f	-0.06667017
87	0x3da65195	0.08121029
88	0xbe8976f6	-0.26848572
89	0x3da84cf8	0.082178056
90	0xbc7b4f60	-0.015338749
91	0x3e145ccb	0.14488523
92	0x3d7ae546	0.06125381
93	0xbe432f85	-0.19061096
94	0xbde75628	-0.1129573
95	0xbe16e141	-0.14734365
96	0x3d21e84a	0.03952817
97	0x3c0d9208	0.008640774
98	0xbc15a658	-0.009133898
99	0xbe832698	-0.25615382
100	0xbd1fe3b1	-0.039035503
101	0xbe6821cb	-0.22669141
102	0xbd2c0727	-0.04199901
103	0xbe35db59	-0.17759456
104	0xbe9d8458	-0.30765033
105	0xbcd17b88	-0.0255716
106	0xbcc930c0	-0.024559379
107	0xbe5709bf	-0.20999812
108	0xbe9cce1e	-0.30626005
109	0x3ba11f90	0.0049170926
110	0xbeac8649	-0.336962
111	0x3d34935a	0.044085838
112	0xbcb40e74	-0.021979548
113	0x3c99543f	0.01871693
114	0xbe92848b	-0.28616747
115	0x3d373cb2	0.044735618
116	0xbddeef4e	-0.108854875
117	0xbd83fdbe	-0.06444882
118	0xbdac0de6	-0.084010884
119	0x3cee9110	0.029121906
120	0x3cbd1992	0.023083482
121	0xbba325d0	-0.004978873
122	0xbe8e7731	-0.2782531
123	0xbeb4178c	-0.35174215
124	0xbde4f7ed	-0.111801006
125	0xbe1cf9f3	-0.15329723
126	0x3d5b46da	0.053534366
127	0xbe55b442	-0.20869544
128	0xbc169188	-0.009189971
129	0xbe3d6d38	-0.18498695
130	0x3e404859	0.18777598
131	0xbc867158	-0.016411468
132	0xbe670f17	-0.2256435
133	0xbea114d0	-0.3146119
134	0xbd89de53	-0.06731858
135	0xbe8760f6	-0.26441163
136	0x3d8408b1	0.0644697
137	0x3d78d60e	0.060751013
138	0xbc5d8430	-0.0135202855
139	0xbd6f7d78	-0.058469266
140	0xbea04a40	-0.31306648
141	0xbe4c9a88	-0.19980824
142	0xbe67f646	-0.2265254
143	0xbe560a04	-0.20902258
144	0xbe466386	-0.19373903
145	0xbeafc48b	-0.34329638
146	0x3cd484d8	0.025942251
147	0xbe6a9523	-0.22908454
148	0x3e772066	0.24133453
149	0xbe936189	-0.2878535
150	0x3d5a9ab6	0.0533702
151	0xbea01590	-0.3126645
152	0xbe456f03	-0.19280629
153	0xbe8ef241	-0.279192
154	0xbe79a88c	-0.24380702
155	0xbe9e9e2a	-0.30980045
156	0xbe383a15	-0.17990907
157	0x3c54ef70	0.0129965395
158	0xbeb028aa	-0.34406024
159	0x3ced7970	0.02898857
160	0xbd9185f6	-0.07105629
161	0xbe5ed2d7	-0.21760117
162	0xbe7bd5f5	-0.24593337
163	0xbd97cc98	-0.0741207
164	0xbeabb23d	-0.33534423
165	0xbe69aad5	-0.22819073
166	0xbe3bad14	-0.18327743
167	0x3d852849	0.065018244
168	0xbe84bdb5	-0.25925985
169	0xbe4d9961	-0.2007804
170	0xbea760b4	-0.32690966
171	0xbe53f058	-0.20697153
172	0xbd9054e7	-0.07047444
173	0xbe48b745	-0.19601162
174	0xbe7117d0	-0.2354424
175	0x3cf173f0	0.029474229
176	0xbbcda9f0	-0.0062763616
177	0xbd816ba6	-0.063193604
178	0xbea44087	-0.3208048
179	0x3ce9e2d8	0.02855055
180	0x3d876ba3	0.06612327
181	0xbe4f9dca	-0.20275036
182	0x3cc3ba84	0.023892649
183	0xbd8325b2	-0.06403674
184	0xbd55826d	-0.052126337
185	0xbd889d4f	-0.06670629
186	0x3d4408fe	0.047860138
187	0x3d7dbf02	0.061949737
188	0xbc620f28	-0.013797559
189	0xbe47c17e	-0.19507405
190	0x3c102dc0	0.00879997
191	0xbe351493	-0.1768363
192	0xbea60c93	-0.32431468
193	0xbe934ff3	-0.28771934
194	0x3b4e3a20	0.003146775
195	0xbe9ec4b2	-0.31009442
196	0xbce32552	-0.027727757
197	0xbbdbde80	-0.0067098737
198	0x3d37ab0a	0.04484085
199	0xbe355d07	-0.17711268
200	0x3daad455	0.0834128
201	0x3e5d827d	0.21631809
202	0xbcd7b5d6	-0.026331823
203	0x3d921785	0.07133392
204	0x3d408562	0.047002204
205	0xbe4eddff	-0.20201872
206	0xbe9cdc4e	-0.3063683
207	0xbe8492fb	-0.25893387
208	0x3d5e791a	0.05431471
209	0xbe8e243c	-0.2776202
210	0xbea56279	-0.3230169
211	0x3d9fdd81	0.078059204
212	0x3c3c8d48	0.011508293
213	0xbe8f50f1	-0.2799144
214	0x3d1d2d16	0.038373075
215	0xbcd8ae18	-0.026450202
216	0xbd65d16a	-0.056107916
217	0xbea69f24	-0.3254329
218	0xbeb1e15f	-0.34742257
219	0xbe8b353d	-0.27189055
220	0xbd7410fe	-0.059586518
221	0xbe3b55ea	-0.18294492
222	0xbe43f1b3	-0.1913517
223	0xbe427ab6	-0.18992123
224	0xbeaccbcf	-0.33749244
225	0xbeaf181b	-0.3419808
226	0xbe5fcd77	-0.21855722
227	0x3cf11158	0.029427215
228	0xbe4bf965	-0.19919355
229	0x3d892d75	0.06698123
230	0xbd1c1851	-0.038109127
231	0xbe94e25b	-0.29078946
232	0xbeac50d1	-0.33655408
233	0xbd3968f9	-0.045266125
234	0x3d3be3d6	0.04587158
235	0xbe7b55f2	-0.24544504
236	0x3e38a72b	0.1803252
237	0xbd808fc2	-0.062774196
238	0xbe851209	-0.25990322
239	0xb6ce8000	-6.1541796e-06
240	0x3a695000	0.00089001656
241	0xbe4c7800	-0.19967651
242	0x3db09683	0.08622458
243	0x3cd6a860	0.026203334
244	0xbe5e4839	-0.21707238
245	0xbe62f4fc	-0.22163767
246	0xbe439d59	-0.19102992
247	0xbd591b82	-0.05300475
248	0xbeaf85a2	-0.3428164
249	0xbbfcee60	-0.007718846
250	0xbe67f2ac	-0.22651166
251	0xbcde6cf2	-0.027151559
252	0xbe814cc0	-0.25253868
253	0xbeb17570	-0.3465991
254	0xbdb4d167	-0.08829003
255	0xbd74a97c	-0.059731945

fc2.bias f4 [636]
0	0xbd8c73cd	-0.06858025
1	0xbeac0787	-0.33599493
2	0xbbd37216	-0.006452809
3	0x3b09cbbf	0.0021025983
4	0xbe50c038	-0.20385826
5	0x3da5f659	0.08103628
6	0xbc621af0	-0.013800368
7	0x3ae71268	0.0017629387
8	0xbe487e46	-0.1957942
9	0x3d48bfef	0.049011167
10	0xbbf72c85	-0.007543149
11	0xbe69eab9	-0.22843446
12	0xbda3a682	-0.07990743
13	0xbdee0e20	-0.11623788
14	0xbe53bfc0	-0.20678616
15	0xbe59832a	-0.21241441
16	0xbea16f43	-0.31530198
17	0x3e230fd0	0.15924
18	0xbd992eca	-0.074796274
19	0xbe3d23cf	-0.18470691
20	0xbe52d3d5	-0.2058862
21	0xbe7d687d	-0.2474689
22	0xbe30f1fc	-0.1727981
23	0xbe69aeba	-0.22820559
24	0xbd0e2fd7	-0.034713592
25	0x3c05fd81	0.008178116
26	0xbda438f2	-0.08018674
27	0xbe8c4701	-0.27397922
28	0xbe774d0f	-0.2415049
29	0xbe592293	-0.21204595
30	0xbca29c44	-0.019849904
31	0xbdebff2b	-0.11523279
32	0xbe47094b	-0.19437139
33	0xbe67cf57	-0.22637688
34	0xbe16f52c	-0.14741963
35	0x3c587b3b	0.013212974
36	0xbe700efd	-0.23443218
37	0xbe3ca6dd	-0.18423028
38	0x3d128b58	0.03577742
39	0xbbaf0e80	-0.0053423047
40	0x3d30a643	0.04312731
41	0xbd86696d	-0.06563077
42	0xbe86eb9b	-0.26351628
43	0xbe733de3	-0.23754077
44	0xbc883f3e	-0.016631719
45	0xbe326c2b	-0.17424075
46	0x3dd6fa50	0.10496962
47	0xbe11afce	-0.1422722
48	0xbe8060ac	-0.25073755
49	0xbe824144	-0.2544042
50	0xbe81496e	-0.25251335
51	0xbcecacfc	-0.02889108
52	0xbdf6eb0b	-0.1205655
53	0xbcc45899	-0.023968028
54	0x3a061e80	0.0005116239
55	0x3e216818	0.15762365
56	0x3e02505b	0.12725966
57	0xbe2bdcbf	-0.16783427
58	0xbdf62029	-0.12017853
59	0xbe3d4a05	-0.18485267
60	0xbc82895c	-0.015934639
61	0xbe7debac	-0.24796933
62	0xbb913207	-0.0044310126
63	0xbea4262a	-0.32060367
64	0xbe397326	-0.18110332
65	0xbe8c823e	-0.27443117
66	0xbe138003	-0.14404301
67	0xbe527bfd	-0.2055511
68	0x3b7e0027	0.0038757415
69	0x3deee598	0.11664885
70	0xbe6801aa	-0.22656885
71	0x3d56b6ee	0.05242055
72	0xbd47c5f9	-0.048772786
73	0xbea96c6b	-0.3309053
74	0xbd99e584	-0.0751448
75	0x3b04ac47	0.0020244287
76	0x3d00e68a	0.03146986
77	0xbe2187f6	-0.15774521
78	0xbe6128d0	-0.21988225
79	0xbd7c7373	-0.06163354
80	0xbe83bf09	-0.25731686
81	0xbe8e25ec	-0.27763307
82	0xbe4575e2	-0.1928325
83	0x3d8d95d8	0.06913346
84	0xbe9972fd	-0.29970542
85	0xbc89a53c	-0.016802423
86	0x3c1f8bd3	0.009737927
87	0xbe17bd54	-0.14818317
88	0x3da92f70	0.08261001
89	0x3cf04bc4	0.029333003
90	0xbcd5d832	-0.026104067
91	0xbe8762ae	-0.26442474
92	0xbe8b7aac	-0.2724203
93	0x3d41022e	0.04712122
94	0x3e2437c0	0.16036892
95	0xbea06340	-0.31325722
96	0xbe511e16	-0.20421633
97	0xbe59c2a1	-0.21265651
98	0xbe0c26d2	-0.13686684
99	0xbcee07f6	-0.02905653
100	0xbd25e3a0	-0.040500283
101	0xbe422104	-0.18957907
102	0x3c96a6df	0.018390117
103	0xbd017c0c	-0.03161244
104	0x3c78bf37	0.015182308
105	0xbe9b47df	-0.3032827
106	0xbe7483d2	-0.2387841
107	0x3d0cbf3b	0.03436206
108	0xbe4b0f70	-0.19830108
109	0xbdf4d6f4	-0.119550616
110	0x3b51c0c2	0.0032005762
111	0xbd32020c	-0.043458983
112	0xbcb90b82	-0.022588495
113	0xbda634c3	-0.08115532
114	0xbe5ad45c	-0.21370071
115	0xbd3ea64a	-0.046545304
116	0xbd4ffb36	-0.050776683
117	0x3df166b1	0.11787165
118	0xbe40a37d	-0.18812366
119	0xbde9427f	-0.11389636
120	0xbcdffbd6	-0.027341764
121	0xbd387a6a	-0.04503862
122	0xbda2001b	-0.07910176
123	0xbdb1e909	-0.08687026
124	0xbe7c450b	-0.24635713
125	0xbc066280	-0.008202195
126	0xbe8a7360	-0.2704115
127	0xbdaaef0e	-0.08346377
128	0xbe925739	-0.2858217
129	0xbd212b0a	-0.039347686
130	0x3e04b2af	0.12958787
131	0xbc898f50	-0.01679197
132	0xbead47d5	-0.33843866
133	0xbe70de81	-0.23522379
134	0xbc62492d	-0.013811392
135	0xbde8276e	-0.113356456
136	0x3c2026a4	0.009774838
137	0xbe964e0d	-0.29356423
138	0xbeae69cd	-0.34065095
139	0xbd126d30	-0.03574866
140	0xbe62ce40	-0.2214899
141	0xbe82115e	-0.25403875
142	0xbe8041de	-0.25050253
143	0xbeb322ad	-0.34987393
144	0x3d8b042b	0.06787904
145	0xbd9c8514	-0.0764257
146	0xbe5777b8	-0.21041763
147	0xbe8f3cfd	-0.27976218
148	0xbcb837a0	-0.022487462
149	0xbceee9fe	-0.02916431
150	0xbe4ca2af	-0.19983934
151	0xbe3d7cd6	-0.18504652
152	0xbb510066	-0.0031891107
153	0x3cfc7e36	0.0308219
154	0xbe7fe002	-0.24987796
155	0xbb9ee660	-0.00484924
156	0xbd7dad4b	-0.061932843
157	0x3e130626	0.14357814
158	0xbe3965dc	-0.18105263
159	0xbcbe9d36	-0.023268323
160	0xbe53877c	-0.20657152
161	0xbda0900f	-0.07839977
162	0xbe39a356	-0.18128714
163	0xbe62c0d5	-0.22143872
164	0xbdeff734	-0.11717072
165	0xbe758ced	-0.2397954
166	0xbe066ff8	-0.1312865
167	0x3cbcc2f6	0.023042183
168	0xbd30131e	-0.04298698
169	0x3d8d1d37	0.06890338
170	0xbcd84f4b	-0.026404997
171	0xbe6954e7	-0.22786294
172	0xbeb4de89	-0.3532603
173	0xbe9a34a4	-0.30118287
174	0xbdeaf294	-0.11472049
175	0xbc9975e0	-0.018732965
176	0xbe1aed4b	-0.15129583
177	0xbd4a62cc	-0.049410626
178	0xbd8248d0	-0.06361544
179	0xbdc2748c	-0.09494886
180	0x3c608de6	0.013705706
181	0x3b080360	0.0020753965
182	0xbe6f36c2	-0.23360732
183	0xbc833abc	-0.016019218
184	0xbd5083d1	-0.05090696
185	0xbdce2f73	-0.10067644
186	0xbe90bb65	-0.2826797
187	0xbde0c12e	-0.10974346
188	0xbcb14e62	-0.021643821
189	0x3d54a514	0.051915243
190	0xbdfade47	-0.12249427
191	0xbdac5d9a	-0.084162906
192	0xbd110bf1	-0.03541178
193	0xbd8a0bee	-0.06740557
194	0xbd750d82	-0.059827335
195	0x3c3c30e8	0.0114862695
196	0xbe811b43	-0.25216112
197	0xbdced7a9	-0.10099728
198	0xbe2fc066	-0.17163238
199	0x3d73e5cd	0.059545327
200	0xbd1432e3	-0.03618134
201	0xbcb7237c	-0.022355787
202	0xbc7551ce	-0.014973117
203	0xbe99bd2c	-0.3002714
204	0xbea0344e	-0.31289905
205	0xbe9e3c45	-0.30905357
206	0xbe46a642	-0.1939936
207	0xbe7800b4	-0.24219018
208	0xbe0b38c8	-0.13595879
209	0xbe19eca3	-0.15031676
210	0xbe7f0edc	-0.24908012
211	0xbea8e0a2	-0.3298388
212	0xbd5e60f8	-0.054291695
213	0xbe9d9df2	-0.30784565
214	0xbe3aa699	-0.18227614
215	0x3b382b5a	0.0028102011
216	0xbdd93a35	-0.10606805
217	0xbe8b795a	-0.2724102
218	0xbcbf00bc	-0.02331578
219	0xbe96e28c	-0.29469717
220	0x3d8ab43f	0.067726605
221	0xbe994561	-0.29935744
222	0xbe9f3eff	-0.3110275
223	0x3d951a56	0.07280414
224	0xbe4ca80e	-0.19985983
225	0xbda744e1	-0.081674345
226	0xbeaee69c	-0.34160316
227	0x3d5a6498	0.05331859
228	0xbe8defac	-0.27721918
229	0xbc7781e9	-0.015106657
230	0xbeabcce6	-0.33554763
231	0xbbe34718	-0.0069359653
232	0xbd4a97a1	-0.04946101
233	0x3dc85576	0.097819254
234	0xbe48116c	-0.19537896
235	0xbda66d89	-0.08126361
236	0xbe473a36	-0.194558
237	0xbda6c16b	-0.0814236
238	0xbe4b20a7	-0.19836675
239	0xbe4c52b2	-0.19953421
240	0xbe994422	-0.29934794
241	0xbd47ed5f	-0.04881036
242	0xbe3808c7	-0.17972098
243	0x3d2ecf06	0.0426779
244	0xbd399e45	-0.045316953
245	0xbe167cd2	-0.14696053
246	0x3d212627	0.039343026
247	0xbeaab8f8	-0.33344245
248	0xbd965005	-0.07339481
249	0xbda443f0	-0.080207705
250	0x3dc7256e	0.09723936
251	0xbe30a562	-0.17250589
252	0x3cffb210	0.031212837
253	0x3dc721c2	0.09723236
254	0x3e500cfc	0.20317453
255	0xbe5585c7	-0.20851813

fc3.weight f4 [64, 636]
0	0x3dff68ee	0.124711856
1	0xbe78cf8f	-0.24297927
2	0x3b1f22cf	0.0024282222
3	0xbe92b88f	-0.28656432
4	0xbe8fd0d3	-0.28089008
5	0x3e42a732	0.19009092
6	0x3e869892	0.26288277
7	0x3e7f3b31	0.24924923
8	0xbd16db4d	-0.036830235
9	0xbea24382	-0.3169213
10	0xbe6dfc7d	-0.23240848
11	0x3d0da380	0.034579754
12	0xbcd266ad	-0.025683725
13	0xbe923f3c	-0.2856387
14	0xbe890021	-0.2675791
15	0xbe5ac67c	-0.21364778
16	0xbe9b2d95	-0.30308214
17	0x3e4a9ab7	0.19785582
18	0xbe010352	-0.12598923
19	0xbe473805	-0.19454964
20	0x3e67e8f9	0.22647466
21	0x3e62f40f	0.22163413
22	0x3e469c78	0.19395626
23	0xbe4b28d4	-0.19839793
24	0xbe8fd189	-0.2808955
25	0x3b2e4361	0.0026590454
26	0xbd0f5980	-0.034997463
27	0x3e869a98	0.2628982
28	0x3e505534	0.20345002
29	0xbe7f9e46	-0.2496272
30	0xbc6e49e2	-0.014543982
31	0x3e3f8e46	0.18706617
32	0xbe90b180	-0.28260422
33	0xbe1db8cd	-0.15402527
34	0x3e165208	0.1467973
35	0xbe9c9bcb	-0.3058761
36	0x3e3e7534	0.18599397
37	0xbe990cb7	-0.29892513
38	0xbe9b0dbd	-0.3028392
39	0x3cf1d79c	0.029521756
40	0x3e5357cd	0.20638962
41	0x3d08c9dc	0.033395633
42	0xbe876cb3	-0.26450118
43	0x3e841157	0.2579448
44	0xbe816e48	-0.2527945
45	0xbe25cbca	-0.1619102
46	0xbe968d4f	-0.29404685
47	0xbe1f8649	-0.1557857
48	0x3e697b0a	0.22800842
49	0xbe9950dd	-0.29944506
50	0x3e6eeff8	0.23333728
51	0xbe461e34	-0.19347459
52	0xbe61b9c6	-0.22043523
53	0x3e5f5a8e	0.21811888
54	0x3c40a124	0.011757169
55	0x3e101463	0.14070277
56	0x3d293292	0.041307993
57	0xbdfff737	-0.12498324
58	0xbe629e3d	-0.22130676
59	0x3e4a8489	0.1977712
60	0xbca3889c	-0.019962601
61	0xbe1d78bb	-0.15378086
62	0xbcd9a149	-0.026566165
63	0x3e69c90b	0.22830598
64	0x3e4450b0	0.19171405
65	0x3e6c0966	0.2305046
66	0x3d1fc74e	0.03900843
67	0xbe798744	-0.24368006
68	0x3e0cf6b6	0.13765988
69	0xbea2302a	-0.3167737
70	0xbe69eaf2	-0.22843531
71	0x3c5dff10	0.013549581
72	0x3e087adc	0.13328117
73	0xbe852e8d	-0.26012078
74	0x3cfc8c44	0.030828603
75	0x3e498840	0.19680882
76	0x3e7f4602	0.2492905
77	0x3e55799d	0.20847173
78	0xbcc8fe3f	-0.024535296
79	0xbbae7b88	-0.0053247847
80	0xbe901bb9	-0.2814615
81	0xbe5a4552	-0.21315506
82	0xbbc3dec8	-0.0059774853
83	0x3e1c1185	0.15241058
84	0x3e650c2d	0.22367926
85	0xbcaeec78	-0.021352991
86	0xbea33afd	-0.31880942
87	0xbdf61a2a	-0.12016709
88	0xbe94e63e	-0.2908191
89	0x3d0387f0	0.032112062
90	0xbc5d1459	-0.013493621
91	0xbe794e34	-0.24346238
92	0x3e987a3c	0.29780757
93	0x3e3afbc0	0.18260098
94	0x3e4d2031	0.20031811
95	0x3e457028	0.19281065
96	0xbe7eef89	-0.24896063
97	0x3e947ba8	0.29000592
98	0x3e3e6916	0.18594775
99	0x3ce064a0	0.027391732
100	0x3e4ff840	0.20309544
101	0x3e70e9f7	0.2352675
102	0xbe9fced6	-0.3121249
103	0x3e6f3c51	0.23362853
104	0xbe9f6143	-0.31128892
105	0xbe73dcd6	-0.23814711
106	0x3ceb75c8	0.028742686
107	0xbe89e61e	-0.26933378
108	0xbe4e447d	-0.20143314
109	0x3e004f02	0.12530139
110	0x3d923088	0.07138163
111	0x3bc4d110	0.0060063675
112	0xbe93223e	-0.28737062
113	0x3cb016c4	0.02149523
114	0x3e90b61e	0.28263944
115	0x3d800ee5	0.06252841
116	0xbe846918	-0.2586143
117	0x3e77e8cd	0.242099
118	0xbe69c273	-0.22828083
119	0x3bf4fd38	0.007476475
120	0xbe88d506	-0.26725024
121	0xbea152bb	-0.3150843
122	0x3e49192e	0.19638512
123	0x3c607540	0.01369983
124	0xbe3c0d2e	-0.18364403
125	0x3c86d438	0.016458616
126	0x3e6b02c1	0.2295027
127	0xbdbbe4a3	-0.09174468
128	0x3e7d8dc7	0.24761115
129	0x3e0f516d	0.13995905
130	0xbd18f832	-0.037346072
131	0xbea6bdf4	-0.32566798
132	0xbe8010c3	-0.25012788
133	0x3e684743	0.22683434
134	0x3da17072	0.07882775
135	0xbe8e3970	-0.27778196
136	0xbea1f9da	-0.31635934
137	0x3e928413	0.2861639
138	0x3e8588c5	0.2608091
139	0xbea383ca	-0.31936485
140	0xbe43b62e	-0.19112465
141	0xbe672430	-0.22572398
142	0x3e789844	0.24276835
143	0xbe68f023	-0.22747855
144	0xbe980315	-0.2968985
145	0x3d1b824a	0.03796605
146	0xbe864a13	-0.2622839
147	0x3e8b5a01	0.27217105
148	0x3d0f99a6	0.03505864
149	0x3d1e5f4c	0.0386651
150	0x3e6a6794	0.22891074
151	0x3e8172df	0.25282952
152	0x3d0b7d28	0.034054905
153	0x3ae0b459	0.0017143592
154	0x3e61e438	0.22059715
155	0x3c807786	0.015681993
156	0x3ce972a8	0.028497055
157	0x3e765166	0.24054489
158	0x3e8b8346	0.2724859
159	0xbe4446b6	-0.19167599
160	0xbe44cf9d	-0.19219823
161	0x3e6f2339	0.2335328
162	0x3e58b452	0.21162537
163	0xbe8004fa	-0.25003797
164	0xbe870bf9	-0.26376322
165	0x3e964784	0.29351437
166	0x3e6bf973	0.23044376
167	0xbe831589	-0.25602368
168	0x3e36c6ec	0.1784932
169	0x3e5ba3c3	0.21449189
170	0xbea04d59	-0.31309012
171	0xbe827ce7	-0.25485918
172	0xbe87f101	-0.2655106
173	0xbe644de6	-0.22295341
174	0x3e5c6aea	0.2152516
175	0xbea15d83	-0.31516656
176	0x3e272854	0.16323978
177	0x3dc3d9b8	0.09563011
178	0x3c059584	0.008153323
179	0x3e65e791	0.22451617
180	0xbd832d01	-0.06405068
181	0xbcc8af84	-0.024497755
182	0x3e48decc	0.1961624
183	0x3cb803ac	0.022462688
184	0xbe9c1d78	-0.30491233
185	0xbe388dcf	-0.18022846
186	0x3e797676	0.24361596
187	0xbe036d67	-0.12834702
188	0xbe9d2a56	-0.30696362
189	0x3e74245c	0.23841995
190	0x3c982806	0.018573772
191	0xbd88c1fe	-0.06677626
192	0x3e578217	0.21045719
193	0xbd1a956c	-0.037740156
194	0xbc365988	-0.011129744
195	0xbc8d7fb6	-0.017272811
196	0x3e56f536	0.20991978
197	0x3e8787a9	0.26470688
198	0xbc5073b4	-0.012722898
199	0xbe831d55	-0.25608316
200	0x3b72e070	0.0037060045
201	0xbc522096	-0.012825152
202	0x3e712572	0.2354944
203	0xbe661ccc	-0.22471923
204	0xbe90002f	-0.2812514
205	0x3e51b76f	0.2048013
206	0x3e5791a8	0.21051657
207	0xbe6860c5	-0.22693165
208	0x3e7cc4f8	0.24684513
209	0xbe1eac8e	-0.15495512
210	0x3e8cb664	0.27482903
211	0x3e7d7a99	0.24753799
212	0x3ccf47a4	0.025302716
213	0x3e544f25	0.20733316
214	0x3e5a4c88	0.21318257
215	0x3df59ecb	0.11993178
216	0xbd8e8845	-0.06959585
217	0x3e391708	0.18075192
218	0xbdc27b8d	-0.09496222
219	0x3e5f653d	0.21815963
220	0x3df54b75	0.11977283
221	0xbe835808	-0.256531
222	0xbe7018b6	-0.23446926
223	0xbea8d63a	-0.32975942
224	0xbe6b594f	-0.22983287
225	0xbb014f30	-0.0019731037
226	0x3e802ce5	0.25034252
227	0xbe8a129a	-0.26967317
228	0x3e405602	0.1878281
229	0xbd21b9e0	-0.039483905
230	0x3e6b151c	0.22957271
231	0x3e2faa78	0.17154872
232	0xbbdcac58	-0.006734412
233	0x3e299759	0.16561641
234	0xbe99dc20	-0.30050755
235	0xbcc694de	-0.024240907
236	0x3e315edb	0.1732134
237	0x3e5fb81e	0.21847579
238	0xbe88fbec	-0.267547
239	0xbe689031	-0.22711255
240	0xbe690d4f	-0.22758983
241	0x3d1b20b0	0.03787297
242	0x3e50f9a5	0.20407732
243	0x3c022194	0.007942576
244	0xbc423a6a	-0.011854747
245	0xbd6e6f85	-0.058211822
246	0xbe83d631	-0.25749353
247	0xbe827ec0	-0.25487328
248	0x3cd912f0	0.026498288
249	0xbc7b6b36	-0.015345385
250	0x3e1a3fef	0.15063451
251	0xbe6c87ad	-0.23098631
252	0x3e730edb	0.23736136
253	0x3d1d5eb3	0.03842039
254	0x3e37b5b4	0.17940408
255	0x3e94a14e	0.29029316

fc3.bias f4 [64]
0	0x3e11a36e	0.142225
1	0xbe81a290	-0.25319338
2	0x3e705376	0.23469338
3	0xbe825de7	-0.25462267
4	0x3e35269f	0.17690514
5	0x3e51c855	0.20486577
6	0xbd859341	-0.06522227
7	0xbe763ba5	-0.2404619
8	0x3e5cebb5	0.2157429
9	0x3e2cf39a	0.16889802
10	0x3e801d04	0.25022137
11	0x3e826668	0.25468755
12	0xbe556149	-0.20837893
13	0xbe732fe9	-0.23748745
14	0x3e8297e1	0.255065
15	0xbe62417e	-0.22095296
16	0xbe7c857c	-0.24660295
17	0x3dd2b36d	0.10288129
18	0xbe8b03b3	-0.2715126
19	0x3e65fac3	0.22458939
20	0x3dc59d83	0.096491836
21	0xbe85083f	-0.25982854
22	0xbe76ef1c	-0.2411465
23	0xbe8f92c8	-0.28041673
24	0x3df3dc32	0.11907233
25	0xbd035745	-0.03206565
26	0xbe928ca5	-0.28622928
27	0xbe6f5556	-0.23372397
28	0x3e4ed260	0.20197439
29	0xbe658df5	-0.22417434
30	0x3e8b3309	0.27187374
31	0xbdf9c58c	-0.12195882
32	0xbe774937	-0.24149023
33	0xbe6a3194	-0.22870475
34	0xbe705835	-0.23471148
35	0x3dbf5d58	0.09343976
36	0xbe81f9d6	-0.25385922
37	0x3e0d61e0	0.13806868
38	0x3e51f968	0.20505297
39	0xbe7bdd32	-0.24596098
40	0xbe8bb73a	-0.27288228
41	0xbe94e889	-0.2908366
42	0xbe74ac5b	-0.23893873
43	0xbe05cdcc	-0.13066787
44	0xbe88541e	-0.26626676
45	0xbe735fa4	-0.23766953
46	0xbe72991f	-0.23691224
47	0xbe9b6ac8	-0.30354905
48	0x3e78d038	0.24298179
49	0x3d37c853	0.04486878
50	0xbe9670fb	-0.29383072
51	0xbdcb314b	-0.09921511
52	0xbe68cc4e	-0.22734186
53	0xbe7ecf99	-0.2488388
54	0xbe7b809b	-0.24560778
55	0x3d9b0390	0.07569039
56	0xbcadff4f	-0.021239905
57	0x3da11255	0.07864825
58	0xbe73a632	-0.23793867
59	0xbe90c66e	-0.2827639
60	0x3e141c1c	0.14463848
61	0xbe8ea295	-0.27858415
62	0xbe19e81e	-0.15029952
63	0xbe7be9b9	-0.24600877

fc4.weight f4 [3, 64]
0	0x3e8e16dd	0.27751818
1	0x3d612268	0.054964453
2	0xbe793ecd	-0.24340363
3	0xbe976b62	-0.29574114
4	0xbd1bb279	-0.038012
5	0x3e509bdf	0.2037196
6	0x3e241fac	0.16027707
7	0xbe906311	-0.28200582
8	0xbe832d9b	-0.25620732
9	0x3e561278	0.20905483
10	0xbe2afc77	-0.1669787
11	0xbe7bb36b	-0.24580161
12	0xbdfd10b0	-0.123566985
13	0x3e481332	0.19538572
14	0xbe49b770	-0.19698882
15	0x3e63a864	0.22232205
16	0xbea11d69	-0.3146775
17	0x3e9bc90b	0.3042682
18	0xbe58707e	-0.21136662
19	0x3e5e20f4	0.21692258
20	0xbe478d48	-0.19487488
21	0xbeb3c492	-0.3511091
22	0x3e0aa8b0	0.13540912
23	0x3e5c8615	0.21535523
24	0x3eabb8e8	0.3353951
25	0xbdd9e136	-0.10638659
26	0xbd17bbc4	-0.0370443
27	0xbe62a4aa	-0.22133127
28	0x3e32ea5b	0.17472212
29	0xbe617ac2	-0.22019485
30	0xbe3df18b	-0.18549173
31	0xbc890b50	-0.016729027
32	0x3e2720b0	0.16321063
33	0xbe20b6cb	-0.1569473
34	0x3e3e7080	0.18597603
35	0x3ea5881a	0.323304
36	0x3d6400d8	0.055664867
37	0xbe186f41	-0.1488619
38	0x3e6257ef	0.22103857
39	0xbe78d049	-0.24298204
40	0xbdeebfae	-0.11657654
41	0x3e0d92ac	0.13825482
42	0xbe856118	-0.2605064
43	0xbc82d716	-0.015971702
44	0xbe75df5b	-0.24010985
45	0xbe49a0b1	-0.19690205
46	0xbe3d87d3	-0.18508844
47	0xbde976d6	-0.11399619
48	0xbe6f07ee	-0.23342869
49	0x3e96b396	0.29433888
50	0xbe2c3113	-0.16815595
51	0x3d432011	0.047638003
52	0xbe7e8201	-0.2485428
53	0x3e23444d	0.15944023
54	0xbe20d120	-0.15704775
55	0xbda4d40f	-0.080482595
56	0x3e750cd0	0.23930669
57	0x3ea02242	0.31276137
58	0xbd939610	-0.072063565
59	0xbe890c0e	-0.2676701
60	0x3e610c4f	0.21977352
61	0x3e6cc168	0.23120654
62	0x3dea0cbc	0.1142821
63	0x3e3a6f32	0.1820648
64	0x3ea23dce	0.31687778
65	0xbdbcb176	-0.092135355
66	0xbe8de25f	-0.2771177
67	0xbea51444	-0.32242024
68	0x3d95c153	0.07312264
69	0x3e5ffde9	0.21874203
70	0x3dd0b34a	0.10190447
71	0xbe3cbae4	-0.18430668
72	0xbe854397	-0.2602813
73	0x3e57b676	0.21065697
74	0xbe63fbab	-0.22263972
75	0xbe04ca15	-0.12967713
76	0x3c5e2ea0	0.013560921
77	0xbe60ae24	-0.2194143
78	0xbe84309d	-0.2581834
79	0xbe9a8fe8	-0.30187917
80	0xbe84a0b2	-0.2590385
81	0x3e9cce8c	0.30626333
82	0xbe34560a	-0.17610946
83	0x3e028f76	0.12750039
84	0xbe33a949	-0.17545046
85	0xbe657cd2	-0.22410896
86	0x3e7c6e9f	0.24651574
87	0x3e94bea5	0.290517
88	0x3e8a6ab5	0.27034536
89	0xbdb568ee	-0.088579044
90	0xbd00a930	-0.03141135
91	0xbe2e696f	-0.17032407
92	0x3e4c535c	0.19953674
93	0xbe431abc	-0.19053167
94	0xbe400858	-0.18753183
95	0x3d25c248	0.040468484
96	0x3e9f8de4	0.3116294
97	0xbeb657d3	-0.3561388
98	0xba24a900	-0.00062812865
99	0x3e91362b	0.2836164
100	0x3e23cc4a	0.15995899
101	0xbe40683e	-0.18789765
102	0x3e6bb07e	0.23016545
103	0x3d96da14	0.07365814
104	0x3cbeaba0	0.023275197
105	0x3e834fba	0.25646764
106	0xbeb638c7	-0.35590193
107	0x3d9b9c42	0.07598163
108	0xbe8e209d	-0.27759257
109	0xbe312348	-0.17298615
110	0xbe966268	-0.29371953
111	0xbc10c980	-0.008837104
112	0xbe4ae6a9	-0.19814552
113	0x3e793f2f	0.24340509
114	0xbec207cf	-0.37896582
115	0x3d5d2174	0.05398698
116	0x3a192400	0.0005841851
117	0xbea6b89d	-0.32562724
118	0xbea096e7	-0.3136513
119	0xbe336711	-0.17519785
120	0x3e6ec649	0.23317827
121	0x3e848a52	0.2588678
122	0x3df6e9ce	0.120563135
123	0xbe5b9d9c	-0.21446842
124	0x3ddf54b5	0.109048285
125	0x3e37c016	0.17944369
126	0x3e905c2c	0.28195322
127	0x3da45d7a	0.08025642
128	0x3e862002	0.26196295
129	0xbe3876d3	-0.18014078
130	0xbe845165	-0.2584335
131	0xbe3552a0	-0.177073
132	0x3e682363	0.22669749
133	0x3e8411ea	0.25794917
134	0x3e88aa65	0.266925
135	0xbe8375b4	-0.25675738
136	0xbe95466d	-0.29155293
137	0x3e7794c8	0.2417785
138	0xbeaf06b9	-0.34184816
139	0xbe1c61ab	-0.15271632
140	0xbdce246d	-0.100655414
141	0x3ea2c372	0.31789738
142	0xbe9fbd6f	-0.31199214
143	0x3e14b9da	0.14524022
144	0xbe12c55b	-0.14333098
145	0x3e984662	0.29741198
146	0x3e2f6a6e	0.17130443
147	0x3e883ec0	0.26610374
148	0x3daefebc	0.085446805
149	0xbe74133f	-0.23835467
150	0x3e8b58a2	0.2721606
151	0x3e394719	0.18093528
152	0x3eb27b3b	0.34859642
153	0xbb1bc040	-0.0023765713
154	0xbe1cb2b6	-0.15302548
155	0xbe6e00dc	-0.23242515
156	0x3e83ca1e	0.2574014
157	0xbe9dd2bf	-0.3082485
158	0xbe89dc58	-0.2692592
159	0x3db42ece	0.0879799
160	0x3e465d0b	0.1937143
161	0xbe8fd6f0	-0.28093672
162	0x3e82256c	0.25419176
163	0x3e8db04a	0.2767356
164	0x3ce21b50	0.027600914
165	0xbe8d7da0	-0.27634907
166	0x3e8c20df	0.2736883
167	0xbe4d616f	-0.20056699
168	0xbe12d485	-0.14338882
169	0xbe960c66	-0.29306334
170	0xbe4eb9df	-0.20188092
171	0x3e6ccfa6	0.23126087
172	0xbe705f4d	-0.23473854
173	0xbe9af3b9	-0.3026407
174	0xbeb00622	-0.3437968
175	0xbe48cd5c	-0.19609588
176	0xbe7a9e66	-0.24474487
177	0x3e8bbe98	0.2729385
178	0xbe20bfab	-0.15698116
179	0xbe4fcc1c	-0.20292705
180	0xbe9a5a7f	-0.30147168
181	0xbe3e0e87	-0.18560229
182	0xbe740706	-0.23830804
183	0xbe4c06f4	-0.19924527
184	0x3e6e28ea	0.23257795
185	0x3e9592ef	0.29213664
186	0x3dcf301d	0.10116599
187	0xbe8b3b67	-0.27193758
188	0x3e84b853	0.25921878
189	0x3e4fec6a	0.20305029
190	0x3e97cd68	0.296489
191	0xbcd67980	-0.026180983

fc4.bias f4 [3]
0	0xbe8a6a03	-0.27034006
1	0xbe90b73f	-0.28264806
2	0xbe8c35bc	-0.27384746

fc1.weight f4 [128, 2]
0	0xbf2d6d99	-0.6774536
1	0xbdcfb2ac	-0.10141501
2	0x3f14ba88	0.58097124
3	0x3f580375	0.84380275
4	0x3f4dcc8c	0.8039024
5	0x3d18a7e1	0.037269477
6	0x3e484ff6	0.19561753
7	0x3e919026	0.2843029
8	0xbf1aa7bb	-0.60412186
9	0xbf685fde	-0.9077128
10	0x3dbb06dd	0.091321684
11	0x3ea7b1ab	0.32752737
12	0xbe5cf917	-0.21579395
13	0x3f1a13df	0.6018657
14	0x3f47e0f1	0.7807761
15	0x3f78f830	0.97253704
16	0xbd3957e1	-0.045249823
17	0x3e75ff6c	0.24023217
18	0x3e3d0d1b	0.1846203
19	0xbee63c37	-0.44967815
20	0x3eb91d49	0.36155155
21	0xbee9c67a	-0.45659238
22	0xbf4da423	-0.8032858
23	0xbe0f8f98	-0.1401962
24	0x3e944e6d	0.28966084
25	0x3db2eee2	0.087369695
26	0x3ee4907a	0.44641477
27	0x3f600725	0.875109
28	0x3f2c5cc6	0.6732906
29	0xbd883f8f	-0.06652748
30	0xbf443a29	-0.76651245
31	0x3e3033e8	0.172073
32	0x3daee3c0	0.085395336
33	0x3f5edd11	0.8705607
34	0xbe6adf49	-0.22936739
35	0x3f570660	0.839941
36	0x3d3671ad	0.044542003
37	0x3eacc516	0.33744115
38	0x3eaddccf	0.33957526
39	0x3dc9fdbb	0.09862848
40	0x3f63b5d1	0.88949305
41	0x3f1d08f3	0.6134178
42	0x3f311fd9	0.6918922
43	0x3e945f47	0.2897894
44	0x3f048ffb	0.51782197
45	0x3f184ad5	0.59489185
46	0x3f01a5ce	0.5064362
47	0x3cfc0a1d	0.030766541
48	0xbdb97e68	-0.09057313
49	0x3f1c16a0	0.60972023
50	0x3d11f2ac	0.03563182
51	0x3f612c4e	0.8795823
52	0xbd1a3309	-0.037646327
53	0xbe2aa6c0	-0.16665173
54	0x3ec3eeee	0.38268226
55	0xbe76f574	-0.2411707
56	0x3f3d3cac	0.739207
57	0x3f09d799	0.538446
58	0xbea6b648	-0.32560945
59	0x3f2b6585	0.6695178
60	0x3eb8de03	0.36106881
61	0x3eddfce0	0.4335699
62	0xbe86f546	-0.26359004
63	0xbe201adb	-0.15635245
64	0xbf39b32e	-0.7253903
65	0xbf0503e4	-0.5195906
66	0xbe2a9ee0	-0.16662169
67	0xbef4345d	-0.476962
68	0xbd156eb6	-0.036482535
69	0xbe88e4fc	-0.267372
70	0xbf451531	-0.7698546
71	0xbe3b2048	-0.18274033
72	0xbeac1385	-0.33608642
73	0xbe927dbb	-0.2861155
74	0x3e7cfda1	0.24706127
75	0x3f602966	0.8756317
76	0xbebf85c5	-0.37406746
77	0x3dc31384	0.09525207
78	0xbed897fb	-0.42303452
79	0xbf0ae132	-0.5424987
80	0x3ed98412	0.42483574
81	0x3e4e4313	0.20142774
82	0x3ce3a4a2	0.027788464
83	0x3f424930	0.75892925
84	0x3f0b8ed1	0.54514796
85	0x3e6096e8	0.21932566
86	0xbf602d34	-0.87568974
87	0x3ec61406	0.38687152
88	0xbf648e24	-0.8927939
89	0xbf3674bf	-0.7127189
90	0x3ee83ae0	0.45357418
91	0xbef72a0f	-0.48274276
92	0x3f1f28e6	0.6217178
93	0xbf0e5de2	-0.55612004
94	0xbf3200e9	-0.6953264
95	0xbf645db4	-0.8920548
96	0xbec8b586	-0.3920099
97	0x3ec6c183	0.38819513
98	0xbebc0845	-0.3672506
99	0xbea05571	-0.31315187
100	0xbe755bba	-0.23960772
101	0x3f39c115	0.72560245
102	0xbf0fb911	-0.56141764
103	0xbeccbfb4	-0.39990008
104	0xbd5aab3d	-0.05338596
105	0xbddbbcad	-0.107293464
106	0x3f25586c	0.64588046
107	0xbdb15ae8	-0.08659917
108	0x3ebfd7f6	0.37469453
109	0xbf244d17	-0.6418013
110	0x3e31baa2	0.17356351
111	0xbe777a55	-0.2416776
112	0xbf2afa6a	-0.6678835
113	0xbd97ab69	-0.07405741
114	0xbf16a372	-0.5884315
115	0xbf314477	-0.69245094
116	0x3f268381	0.6504441
117	0x3ba500c8	0.0050354935
118	0x3ec6968b	0.3878673
119	0xbef56714	-0.47930205
120	0x3d714090	0.058899462
121	0x3e6fd92f	0.23422693
122	0x3f0f574e	0.5599259
123	0x3f57e7f5	0.84338313
124	0xbdf68824	-0.120376855
125	0xbf046504	-0.5171664
126	0xbd0b228d	-0.033968497
127	0x3e8afb51	0.27144864
128	0xbdd75983	-0.1051512
129	0xbf3acae2	-0.72965825
130	0xbf25bf7f	-0.64745325
131	0xbf268ab1	-0.65055376
132	0xbed62310	-0.41823626
133	0xbe1f28ab	-0.15542857
134	0x3e8ff308	0.28115106
135	0x3eb0d17c	0.34534824
136	0x3e060ae6	0.13090095
137	0xbed39a9e	-0.413289
138	0xbdb1be89	-0.0867892
139	0x3f3187da	0.6934792
140	0x3f23c847	0.63977474
141	0xbeed1df4	-0.46311915
142	0x3f0fb299	0.56131893
143	0x3f6bf099	0.92164
144	0x3ebcf1c3	0.369032
145	0x3e2ca9be	0.16861627
146	0x3f1bb4b0	0.6082258
147	0x3f1b7f49	0.60741097
148	0x3e8002ef	0.25002238
149	0xbebb3c42	-0.3656941
150	0xbeab3e75	-0.33446088
151	0xbe215745	-0.15755947
152	0x3d88f8e7	0.06688099
153	0xbe18b44d	-0.1491253
154	0x3f0bad4d	0.5456131
155	0x3f672611	0.9029246
156	0x3d577d95	0.05261
157	0x3f18e461	0.5972348
158	0x3d2dab93	0.042399954
159	0x3eba36cd	0.36369935
160	0x3e5999cc	0.21250075
161	0xbb425c7f	-0.0029657183
162	0xbef56767	-0.47930452
163	0xbf70326a	-0.93826926
164	0x3cdf3eee	0.027251687
165	0x3f1f11c6	0.62136495
166	0xbf4c66e2	-0.79844487
167	0x3eb837cc	0.3598007
168	0xbd4f7033	-0.05064411
169	0xbd813499	-0.0630886
170	0xbea9678e	-0.33086818
171	0xbf58325e	-0.84451854
172	0x3e890887	0.26764318
173	0xbe8ec54d	-0.27884904
174	0x3d40aecf	0.04704171
175	0x3f2487af	0.64269537
176	0xbed42b0e	-0.41439098
177	0xbf616d32	-0.88057244
178	0x3c26f7c3	0.010190907
179	0x3f38e7ae	0.72228515
180	0x3f20849e	0.6270236
181	0x3e4f037a	0.2021617
182	0xbe95df12	-0.29271752
183	0x3f2b7a5c	0.6698358
184	0xbedcaedf	-0.43102166
185	0x3e3e93bc	0.18611044
186	0x3f25b5ba	0.6473042
187	0xbd13b0be	-0.036057226
188	0x3ef8c896	0.48590535
189	0xbdddbcef	-0.10827052
190	0x3e4d2cc4	0.20036608
191	0xbf5c314d	-0.8601273
192	0xbf0f4e6a	-0.55979025
193	0x3eb9656a	0.36210185
194	0x3e0ade53	0.13561372
195	0x3ef8bcf1	0.4858165
196	0x3e3a6382	0.18202022
197	0x3ec7f9cc	0.39057767
198	0xbeb78e06	-0.35850543
199	0x3d861b64	0.06548193
200	0xbe82d88d	-0.2555584
201	0x3f1a3c69	0.6024843
202	0xbf4ba320	-0.79545784
203	0xbf4ced9a	-0.8005005
204	0x3e0c5062	0.13702539
205	0x3f09db79	0.53850514
206	0x3ea01075	0.31262556
207	0x3e26ef62	0.16302255
208	0x3f6737c9	0.90319496
209	0x3ddc7cc2	0.10765983
210	0x3f299c7b	0.66254395
211	0xbd9ed6a3	-0.077557825
212	0xbdd51587	-0.10404497
213	0xbf0dded4	-0.55418134
214	0x3f46829e	0.77543056
215	0x3e8d3456	0.27578992
216	0x3f58926e	0.84598434
217	0x3f19e98e	0.60122
218	0x3dc1a100	0.094545364
219	0xbde0b239	-0.10971493
220	0xbee57932	-0.44819027
221	0x3e172562	0.14760354
222	0x3ed35836	0.41278237
223	0xbf232c06	-0.6373905
224	0xbd46198c	-0.048364207
225	0xbeffac03	-0.49935922
226	0xbd2fe9d5	-0.04294761
227	0xbe0dcbdf	-0.13847302
228	0xbeaaf4aa	-0.3338979
229	0xbf43f1e2	-0.7654096
230	0x3eb77b4f	0.35836264
231	0xbe1f7ab3	-0.1557415
232	0x3ec63690	0.38713503
233	0xbe8b8a85	-0.2725412
234	0x3edce523	0.43143567
235	0x3f271d3f	0.65279
236	0xbe6eee54	-0.23333102
237	0xbf1bf83f	-0.6092567
238	0x3ea235ed	0.31681767
239	0xbeff84f4	-0.49906123
240	0x3e8406ca	0.2578643
241	0x3e2c683a	0.16836634
242	0x3e993d06	0.2992937
243	0x3e600272	0.21875933
244	0x3f4afcd4	0.79292035
245	0xbec08a0e	-0.37605327
246	0xbf4e03d4	-0.8047459
247	0xbf3c1f99	-0.73485714
248	0xbeaa6213	-0.3327795
249	0xbeab40d3	-0.33447894
250	0xbeda1614	-0.4259497
251	0xbeba9abc	-0.36446178
252	0x3eaba7ed	0.33526555
253	0x3f1b4490	0.60651493
254	0xbf0254d4	-0.5091069
255	0xbc0731de	-0.008251635

fc1.bias f4 [128]
0	0xbd9e4480	-0.07727909
1	0x3d80b6cf	0.06284868
2	0x3e042ba8	0.12907279
3	0xbf302461	-0.6880551
4	0x3e910375	0.2832295
5	0x3e6a4318	0.22877157
6	0xbebb4be3	-0.36581334
7	0xbe9487b4	-0.29009783
8	0xbdd319b6	-0.10307638
9	0xbede58a8	-0.43427014
10	0xbee8a569	-0.45438698
11	0xbd8a9d40	-0.06768274
12	0x3d665002	0.056228645
13	0x3b320450	0.0027163215
14	0x3e2a369d	0.16622396
15	0xbe1b59ff	-0.1517105
16	0x3dc40767	0.095717244
17	0xbd21715c	-0.03941475
18	0xbf0c6bbb	-0.54851884
19	0xbe1dc301	-0.1540642
20	0xbdb282f8	-0.087163866
21	0xbdd70c00	-0.10500336
22	0xbe94765a	-0.28996545
23	0x3e051993	0.12998037
24	0x3e02a7f3	0.1275938
25	0x3e33ee32	0.17571333
26	0x3eade4ff	0.33963773
27	0x3e5545ec	0.20827454
28	0x3ce6b73e	0.028163549
29	0xbece9d43	-0.40354356
30	0x3eb109e4	0.34577858
31	0xbeedfc9d	-0.4648179
32	0xbde97e84	-0.11401084
33	0x3eb1ed28	0.34751248
34	0x3ccab83e	0.024746057
35	0xbf4e5d21	-0.80610853
36	0x3ec73cc1	0.3891354
37	0x3ed4f112	0.41590172
38	0x3e3fc9a8	0.1872927
39	0xbf2bee3e	-0.67160404
40	0xbe17c30c	-0.14820498
41	0x3e6d6a88	0.2318517
42	0xbcba897d	-0.022770638
43	0xbe167b8d	-0.14695568
44	0xbdc61ba7	-0.09673243
45	0x3e9bd9b4	0.30439532
46	0x3e225eb9	0.15856446
47	0x3cd4438c	0.025911115
48	0xbf113267	-0.5671753
49	0xbeded7f5	-0.43524137
50	0x3e87441b	0.26419148
51	0xbf29ce9c	-0.66330886
52	0xbed465c0	-0.4148388
53	0xbe076b91	-0.13224627
54	0xbe4955ae	-0.1966159
55	0xbf1587cb	-0.5841033
56	0xbd90a873	-0.07063379
57	0xbf0c513c	-0.54811454
58	0xbec8e07e	-0.39233774
59	0xbea22264	-0.31666863
60	0xbe0d0be4	-0.13774067
61	0xbe46fc17	-0.19432102
62	0xbeb75c0f	-0.35812423
63	0x3dad6567	0.084666066
64	0x3e76424e	0.2404873
65	0x3de46f21	0.11154009
66	0xbf099529	-0.53743225
67	0x3c8cc856	0.017185371
68	0xbf1abfbf	-0.6044883
69	0xbe24780e	-0.16061422
70	0xbf258d68	-0.64668894
71	0x3efae1fc	0.49000537
72	0xbe96bc64	-0.29440606
73	0xbe3dd2ba	-0.18537417
74	0xbf327df3	-0.69723433
75	0xbeeae78b	-0.45879778
76	0xbf0a2d81	-0.53975683
77	0x3dcb8030	0.09936559
78	0x3e086606	0.13320169
79	0x3bc99025	0.0061512166
80	0xbe87c44f	-0.2651696
81	0x3ec8f25d	0.39247409
82	0x3e65ef63	0.224546
83	0xbda6d075	-0.08145229
84	0xbe901d0d	-0.28147164
85	0x3ea94e72	0.33067662
86	0xbeda45ad	-0.42631283
87	0xbf2c9e06	-0.67428625
88	0x3e1ffc44	0.15623575
89	0x3ded3e14	0.11584106
90	0x3df519b6	0.119677946
91	0xbbdb6e15	-0.0066964724
92	0xbf2a1d64	-0.66451097
93	0x3db1bfdb	0.08679172
94	0xbe1268eb	-0.14297836
95	0x3dd1cf84	0.102446586
96	0xbd8ab955	-0.067736305
97	0x3db41eb3	0.08794918
98	0x3d64baa7	0.055842068
99	0xbf228822	-0.6348897
100	0x3e3c06c4	0.18361956
101	0xbd063ee5	-0.032774825
102	0xbf1baa20	-0.60806465
103	0xbdff93ef	-0.12479388
104	0x3d9e0ca3	0.07717254
105	0xbf0ba869	-0.5455385
106	0xbf0c2953	-0.54750556
107	0xbea25f34	-0.3171326
108	0xbeaa5c10	-0.33273363
109	0xbf039dcb	-0.5141265
110	0x3e1d8dd2	0.15386131
111	0xbf327a0b	-0.6971747
112	0xbf1368d1	-0.5758181
113	0x3e7716cf	0.24129795
114	0xbf148f81	-0.5803147
115	0xbebbf7c3	-0.36712465
116	0x3da20ba6	0.07912378
117	0x3ea650c0	0.32483482
118	0x3ea3506f	0.31897303
119	0xbead171f	-0.33806702
120	0x3e58b218	0.21161687
121	0xbedd2026	-0.4318859
122	0xbbd8c83b	-0.006615666
123	0x3cbbf128	0.02294214
124	0x3ea2c754	0.317927
125	0x3eb7c801	0.35894778
126	0xbf1f8283	-0.6230852
127	0xbdcbee33	-0.09957542
